…
prepending to LD_LIBRARY_PATH: /usr/local/libcudnn-11.4-8.2.4/lib64

Activate conda to use an environment: run "conda activate" or "conda activate {environment_name}"
Num GPUs Available: 1
SLURM_JOB_NAME - job_bs16_tf
SLURM_JOB_ID - 137208
________________Preprocess started________________

..................Loading slices..................
Loading the following:
tag
t2tsetra    346
Loading finished 128 s

....................Resampling....................

      ~Selecting resolution for resampling~       

Current resolution in the series pr modality:
                         count
tag      dim                  
t2tsetra (384, 384, 19)    149
         (384, 384, 21)     90
         (384, 384, 23)     34
         (320, 320, 19)     28
         (320, 320, 21)     18
         (320, 320, 23)      8
         (384, 384, 25)      7
         (320, 320, 25)      2
         (320, 320, 20)      1
         (320, 320, 22)      1
         (320, 320, 27)      1
         (384, 384, 18)      1
         (384, 384, 20)      1
         (384, 384, 22)      1
         (384, 384, 24)      1
         (384, 384, 27)      1
         (384, 384, 29)      1
         (640, 640, 27)      1

Chosen resampling dimension of each modality:
     tag     resize_dim
t2tsetra (320, 320, 20)

               ~Resamplig started~                

   ~Resampling ended, checking new resolution~    

Current resolution in the series pr modality:
                         count
tag      dim                  
t2tsetra (320, 320, 20)    346

Resampling finished 4 s

..................Normalization...................

Normalization finished 10 s

___________Preprocess finished 00:02:23___________

____________Data augmentation started_____________

....................Splitting.....................

|	Train	|	Test	|	Val	|
|	70%	|	20%	|	10%	|
|	241	|	70	|	35	|

..Converting sitk image to np.array and reshape...

Conversion and reshape finished 3 s

...................Adding noise...................

...................Adding noise...................

...................Adding noise...................

____________Data augmentation 00:00:44____________

___________t2 - Model building started____________

.............t2_model - compile model.............
Model: "t2_model"
_________________________________________________________________
 Layer (type)                Output Shape              Param #   
=================================================================
 input_1 (InputLayer)        [(None, 320, 320, 20, 1)  0         
                             ]                                   
                                                                 
 conv3d (Conv3D)             (None, 320, 320, 20, 32)  896       
                                                                 
 max_pooling3d (MaxPooling3D  (None, 160, 160, 10, 32)  0        
 )                                                               
                                                                 
 conv3d_1 (Conv3D)           (None, 160, 160, 10, 32)  27680     
                                                                 
 max_pooling3d_1 (MaxPooling  (None, 80, 80, 5, 32)    0         
 3D)                                                             
                                                                 
 conv3d_transpose (Conv3DTra  (None, 160, 160, 10, 32)  27680    
 nspose)                                                         
                                                                 
 conv3d_transpose_1 (Conv3DT  (None, 320, 320, 20, 32)  27680    
 ranspose)                                                       
                                                                 
 conv3d_2 (Conv3D)           (None, 320, 320, 20, 1)   865       
                                                                 
=================================================================
Total params: 84,801
Trainable params: 84,801
Non-trainable params: 0
_________________________________________________________________
None
(241, 320, 320, 20, 1)

...........t2_model - training started............
Batch size = 16
Epoch 1/50
2022-03-01 12:02:58.083459: W tensorflow/core/kernels/gpu_utils.cc:49] Failed to allocate memory for convolution redzone checking; skipping this check. This is benign and only means that we won't check cudnn for out-of-bounds reads and writes. This message will only be printed once.
…
